…
____________________________________________________________________________________________________
conv3d_4 (Conv3D)                (None, 18, 18, 18, 72 132264      concatenate_3[0][0]
____________________________________________________________________________________________________
p_re_lu_4 (PReLU)                (None, 18, 18, 18, 72 419904      conv3d_4[0][0]
____________________________________________________________________________________________________
batch_normalization_4 (BatchNorm (None, 18, 18, 18, 72 288         p_re_lu_4[0][0]
____________________________________________________________________________________________________
max_pooling3d_4 (MaxPooling3D)   (None, 9, 9, 9, 72)   0           batch_normalization_4[0][0]
____________________________________________________________________________________________________
average_pooling3d_4 (AveragePool (None, 9, 9, 9, 4)    0           average_pooling3d_3[0][0]
____________________________________________________________________________________________________
concatenate_4 (Concatenate)      (None, 9, 9, 9, 76)   0           max_pooling3d_4[0][0]
                                                                   average_pooling3d_4[0][0]
____________________________________________________________________________________________________
conv3d_5 (Conv3D)                (None, 9, 9, 9, 72)   147816      concatenate_4[0][0]
____________________________________________________________________________________________________
p_re_lu_5 (PReLU)                (None, 9, 9, 9, 72)   52488       conv3d_5[0][0]
____________________________________________________________________________________________________
batch_normalization_5 (BatchNorm (None, 9, 9, 9, 72)   288         p_re_lu_5[0][0]
____________________________________________________________________________________________________
global_max_pooling3d_1 (GlobalMa (None, 72)            0           batch_normalization_5[0][0]
____________________________________________________________________________________________________
dense_1 (Dense)                  (None, 32)            2336        global_max_pooling3d_1[0][0]
____________________________________________________________________________________________________
batch_normalization_6 (BatchNorm (None, 32)            128         dense_1[0][0]
dense_1 (Dense)                  (None, 32)            2336        global_max_pooling3d_1[0][0]
____________________________________________________________________________________________________
batch_normalization_6 (BatchNorm (None, 32)            128         dense_1[0][0]
____________________________________________________________________________________________________
o_mal (Dense)                    (None, 1)             33          batch_normalization_6[0][0]
====================================================================================================
Total params: 36,644,857
Trainable params: 36,644,313
Non-trainable params: 544
____________________________________________________________________________________________________
